…
2025-06-24 10:47:32.818650: E external/local_xla/xla/stream_executor/cuda/cuda_driver.cc:266] failed call to cuInit: CUDA_ERROR_MPS_CONNECTION_FAILED: MPS client failed to connect to the MPS control daemon or the MPS server
Loading preprocessed data...
  • X_train: (136, 64, 64, 64), y_train: (136,)
  • X_test : (35, 64, 64, 64), y_test : (35,)
Building model...
Model: "ASD_3D_CNN"
┏━━━━━━━━━━━━━━━━━━━━━━━━━━━━━━━━━┳━━━━━━━━━━━━━━━━━━━━━━━━┳━━━━━━━━━━━━━━━┓
┃ Layer (type)                    ┃ Output Shape           ┃       Param # ┃
┡━━━━━━━━━━━━━━━━━━━━━━━━━━━━━━━━━╇━━━━━━━━━━━━━━━━━━━━━━━━╇━━━━━━━━━━━━━━━┩
│ input_layer (InputLayer)        │ (None, 64, 64, 64, 1)  │             0 │
├─────────────────────────────────┼────────────────────────┼───────────────┤
│ conv3d (Conv3D)                 │ (None, 64, 64, 64, 64) │         1,792 │
├─────────────────────────────────┼────────────────────────┼───────────────┤
│ max_pooling3d (MaxPooling3D)    │ (None, 32, 32, 32, 64) │             0 │
├─────────────────────────────────┼────────────────────────┼───────────────┤
│ batch_normalization             │ (None, 32, 32, 32, 64) │           256 │
│ (BatchNormalization)            │                        │               │
├─────────────────────────────────┼────────────────────────┼───────────────┤
│ conv3d_1 (Conv3D)               │ (None, 32, 32, 32, 64) │       110,656 │
├─────────────────────────────────┼────────────────────────┼───────────────┤
│ max_pooling3d_1 (MaxPooling3D)  │ (None, 16, 16, 16, 64) │             0 │
├─────────────────────────────────┼────────────────────────┼───────────────┤
│ batch_normalization_1           │ (None, 16, 16, 16, 64) │           256 │
│ (BatchNormalization)            │                        │               │
├─────────────────────────────────┼────────────────────────┼───────────────┤
│ conv3d_2 (Conv3D)               │ (None, 16, 16, 16,     │       221,312 │
│                                 │ 128)                   │               │
├─────────────────────────────────┼────────────────────────┼───────────────┤
│ max_pooling3d_2 (MaxPooling3D)  │ (None, 8, 8, 8, 128)   │             0 │
├─────────────────────────────────┼────────────────────────┼───────────────┤
│ batch_normalization_2           │ (None, 8, 8, 8, 128)   │           512 │
│ (BatchNormalization)            │                        │               │
├─────────────────────────────────┼────────────────────────┼───────────────┤
│ conv3d_3 (Conv3D)               │ (None, 8, 8, 8, 256)   │       884,992 │
├─────────────────────────────────┼────────────────────────┼───────────────┤
│ max_pooling3d_3 (MaxPooling3D)  │ (None, 4, 4, 4, 256)   │             0 │
├─────────────────────────────────┼────────────────────────┼───────────────┤
│ batch_normalization_3           │ (None, 4, 4, 4, 256)   │         1,024 │
│ (BatchNormalization)            │                        │               │
├─────────────────────────────────┼────────────────────────┼───────────────┤
│ global_average_pooling3d        │ (None, 256)            │             0 │
│ (GlobalAveragePooling3D)        │                        │               │
├─────────────────────────────────┼────────────────────────┼───────────────┤
│ dense (Dense)                   │ (None, 512)            │       131,584 │
├─────────────────────────────────┼────────────────────────┼───────────────┤
│ dropout (Dropout)               │ (None, 512)            │             0 │
├─────────────────────────────────┼────────────────────────┼───────────────┤
│ dense_1 (Dense)                 │ (None, 1)              │           513 │
└─────────────────────────────────┴────────────────────────┴───────────────┘
 Total params: 1,352,897 (5.16 MB)
 Trainable params: 1,351,873 (5.16 MB)
 Non-trainable params: 1,024 (4.00 KB)
/lustre04/scratch/linah03/Autism/venvAutism/lib/python3.11/site-packages/keras/src/trainers/data_adapters/py_dataset_adapter.py:121: UserWarning: Your `PyDataset` class should call `super().__init__(**kwargs)` in its constructor. `**kwargs` can include `workers`, `use_multiprocessing`, `max_queue_size`. Do not pass these arguments to `fit()`, as they will be ignored.
…
